------------

OneLayerNet(
  (fc1): Linear(in_features=111, out_features=1, bias=True)
)

Columns : All
VAL LOSS : 0.20035473977526028
------------

ThreeLayerNet(
  (fc1): Linear(in_features=111, out_features=55, bias=True)
  (fc2): Linear(in_features=55, out_features=27, bias=True)
  (fc3): Linear(in_features=27, out_features=1, bias=True)
)

Columns : All
VAL LOSS : 0.14885662101209163
------------

FourLayerNet(
  (fc1): Linear(in_features=111, out_features=55, bias=True)
  (fc2): Linear(in_features=55, out_features=27, bias=True)
  (fc3): Linear(in_features=54, out_features=27, bias=True)
  (fc4): Linear(in_features=27, out_features=1, bias=True)
)

Columns : All
VAL LOSS : 0.1510163248454531
------------

FourLayerNet(
  (fc1): Linear(in_features=111, out_features=55, bias=True)
  (fc2): Linear(in_features=55, out_features=27, bias=True)
  (fc3): Linear(in_features=54, out_features=27, bias=True)
  (fc4): Linear(in_features=27, out_features=1, bias=True)
)

Columns : All
VAL LOSS : 0.14494381022950015
------------

FourLayerNet(
  (fc1): Linear(in_features=111, out_features=55, bias=True)
  (fc2): Linear(in_features=55, out_features=27, bias=True)
  (fc3): Linear(in_features=54, out_features=27, bias=True)
  (fc4): Linear(in_features=27, out_features=1, bias=True)
)

Columns : All
VAL LOSS : 0.16104332300523916
------------

NonLinearNet(
  (fc1): Linear(in_features=111, out_features=27, bias=True)
  (fc2): Linear(in_features=108, out_features=55, bias=True)
  (fc3): Linear(in_features=55, out_features=13, bias=True)
  (fc4): Linear(in_features=13, out_features=1, bias=True)
)

Columns : All
VAL LOSS : 0.15953511241823434
------------

NonLinearNet2(
  (fc1): Linear(in_features=333, out_features=111, bias=True)
  (fc2): Linear(in_features=111, out_features=55, bias=True)
  (fc3): Linear(in_features=55, out_features=27, bias=True)
  (fc4): Linear(in_features=27, out_features=1, bias=True)
)

Columns : All
VAL LOSS : 0.16057256523519756
------------

NonLinearNet2(
  (fc1): Linear(in_features=333, out_features=111, bias=True)
  (fc2): Linear(in_features=111, out_features=55, bias=True)
  (fc3): Linear(in_features=55, out_features=27, bias=True)
  (fc4): Linear(in_features=27, out_features=1, bias=True)
)

Columns : All
VAL LOSS : 0.15893689860900242
------------

NonLinearNet2(
  (fc1): Linear(in_features=333, out_features=111, bias=True)
  (fc2): Linear(in_features=111, out_features=55, bias=True)
  (fc3): Linear(in_features=55, out_features=27, bias=True)
  (fc4): Linear(in_features=27, out_features=1, bias=True)
)

Columns : All
VAL LOSS : 0.1613235501696666
------------

OneLayerNet(
  (fc1): Linear(in_features=111, out_features=1, bias=True)
)

Columns : All
VAL LOSS : 0.20094233737637598
------------

OneLayerNet(
  (fc1): Linear(in_features=111, out_features=1, bias=True)
)

Columns : All
VAL LOSS : 0.1940445530662934
------------

OneLayerNet(
  (fc1): Linear(in_features=111, out_features=1, bias=True)
)

Columns : All
VAL LOSS : 0.19423764184117318
------------

FourLayerNet(
  (fc1): Linear(in_features=111, out_features=55, bias=True)
  (fc2): Linear(in_features=55, out_features=27, bias=True)
  (fc3): Linear(in_features=54, out_features=27, bias=True)
  (fc4): Linear(in_features=27, out_features=1, bias=True)
)

Columns : All_max_period
VAL LOSS : 0.1596936509013176